…
":1563237665146,"user_tz":300,"elapsed":149,"user":{"displayName":"Daniel Van Hoesen","photoUrl":"","userId":"18103228201005872179"}},"colab":{"base_uri":"https://localhost:8080/","height":924}},"source":["# Visualize the model (don't get hung up on the details here)\n","print(model.summary())"],"execution_count":7,"outputs":[{"output_type":"stream","text":["_________________________________________________________________\n","Layer (type)                 Output Shape              Param #   \n","=================================================================\n","input_2 (InputLayer)         (None, 224, 224, 3)       0         \n","_________________________________________________________________\n","block1_conv1 (Conv2D)        (None, 224, 224, 64)      1792      \n","_________________________________________________________________\n","block1_conv2 (Conv2D)        (None, 224, 224, 64)      36928     \n","_________________________________________________________________\n","block1_pool (MaxPooling2D)   (None, 112, 112, 64)      0         \n","_________________________________________________________________\n","block2_conv1 (Conv2D)        (None, 112, 112, 128)     73856     \n","_________________________________________________________________\n","block2_conv2 (Conv2D)        (None, 112, 112, 128)     147584    \n","_________________________________________________________________\n","block2_pool (MaxPooling2D)   (None, 56, 56, 128)       0         \n","_________________________________________________________________\n","block3_conv1 (Conv2D)        (None, 56, 56, 256)       295168    \n","_________________________________________________________________\n","block3_conv2 (Conv2D)        (None, 56, 56, 256)       590080    \n","_________________________________________________________________\n","block3_conv3 (Conv2D)        (None, 56, 56, 256)       590080    \n","_________________________________________________________________\n","block3_pool (MaxPooling2D)   (None, 28, 28, 256)       0         \n","_________________________________________________________________\n","block4_conv1 (Conv2D)        (None, 28, 28, 512)       1180160   \n","_________________________________________________________________\n","block4_conv2 (Conv2D)        (None, 28, 28, 512)       2359808   \n","_________________________________________________________________\n","block4_conv3 (Conv2D)        (None, 28, 28, 512)       2359808   \n","_________________________________________________________________\n","block4_pool (MaxPooling2D)   (None, 14, 14, 512)       0         \n","_________________________________________________________________\n","block5_conv1 (Conv2D)        (None, 14, 14, 512)       2359808   \n","_________________________________________________________________\n","block5_conv2 (Conv2D)        (None, 14, 14, 512)       2359808   \n","_________________________________________________________________\n","block5_conv3 (Conv2D)        (None, 14, 14, 512)       2359808   \n","_________________________________________________________________\n","block5_pool (MaxPooling2D)   (None, 7, 7, 512)         0         \n","_________________________________________________________________\n","flatten (Flatten)            (None, 25088)             0         \n","_________________________________________________________________\n","fc1 (Dense)                  (None, 4096)              102764544 \n","_________________________________________________________________\n","fc2 (Dense)                  (None, 4096)              16781312  \n","_________________________________________________________________\n","predictions (Dense)          (None, 1000)              4097000   \n","=================================================================\n","Total params: 138,357,544\n","Trainable params: 138,357,544\n","Non-trainable params: 0\n","_________________________________________________________________\n","None\n"],"name":"stdout"}]},{"cell_type":"code","metadata":{"id":"e1DUVi48H5YA","colab_type":"code","outputId":"b4df947a-810a-4822-9aa5-811a2f97ba8e","execution
…
n')(output_vgg16_conv)\n","x = Dense(32, activation='relu', name='fc1')(x)\n","x = Dense(64, activation='relu', name='fc2')(x)\n","\n","x = Dense(7, activation='softmax', name='predictions')(x)\n","\n","#Create your own model \n","my_model = Model(input=input, output=x)\n","my_model.summary()"],"execution_count":28,"outputs":[{"output_type":"stream","text":["_________________________________________________________________\n","Layer (type)                 Output Shape              Param #   \n","=================================================================\n","image_input (InputLayer)     (None, 224, 224, 3)       0         \n","_________________________________________________________________\n","vgg16 (Model)                multiple                  14714688  \n","_________________________________________________________________\n","flatten (Flatten)            (None, 25088)             0         \n","_________________________________________________________________\n","fc1 (Dense)                  (None, 32)                802848    \n","_________________________________________________________________\n","fc2 (Dense)                  (None, 64)                2112      \n","_________________________________________________________________\n","predictions (Dense)          (None, 7)                 455       \n","=================================================================\n","Total params: 15,520,103\n","Trainable params: 805,415\n","Non-trainable params: 14,714,688\n","_________________________________________________________________\n"],"name":"stdout"},{"output_type":"stream","text":["/usr/local/lib/python3.6/dist-packages/ipykernel_launcher.py:33: UserWarning: Update your `Model` call
…
